model.pt (torch, 335831 bytes, 6 tensors)

conv.0.weight f4 [32, 1, 5, 5]
0	0x3e54f728	0.20797408
1	0x3e431f36	0.19054875
2	0xbb6f9b30	-0.0036561005
3	0xbdb1a58b	-0.08674153
4	0xbd9bb301	-0.07602502
5	0x3db9c0a8	0.090699494
6	0x3e69053b	0.22755902
7	0x3db2d717	0.087324314
8	0x3d96d160	0.07364154
9	0x3e28a3b9	0.16468705
10	0x3e67104b	0.22564809
11	0xbd50f4f7	-0.051014867
12	0x3d517518	0.05113706
13	0xbe37b8fe	-0.17941663
14	0xbdaec2a9	-0.08533222
15	0x3e10793b	0.14108746
16	0xbd4c36ae	-0.049856834
17	0x3d892eca	0.066983774
18	0x3db2aca6	0.08724336
19	0x3dfc6424	0.12323788
20	0x3de8c889	0.11366374
21	0xbdbcac59	-0.0921256
22	0x3bcd01e5	0.0062563294
23	0x3df4f437	0.11960643
24	0xbb84e710	-0.004055865
25	0x3d51f35a	0.05125747
26	0x3d34320e	0.04399305
27	0xbe3d6560	-0.18495703
28	0xb8b20d53	-8.490183e-05
29	0x3c76a64e	0.015054299
30	0x3d667faf	0.056274112
31	0xbdc0c443	-0.09412434
32	0xbe18bb71	-0.14915253
33	0xbddf53a9	-0.10904629
34	0xbdcd6f58	-0.10031003
35	0xbe08b3b7	-0.13349806
36	0x3e07174c	0.13192481
37	0xbe3f51e1	-0.18683578
38	0xbd42393c	-0.047417864
39	0xbe2c704a	-0.1683971
40	0x3e0bca2f	0.13651346
41	0xbdd8ef42	-0.1059251
42	0x3d2aa676	0.041662656
43	0x3e2ce632	0.16884688
44	0xbe3bfeab	-0.18358867
45	0xb9ff6d95	-0.00048719035
46	0xbd9fc83d	-0.07801864
47	0xbe30edc9	-0.17278208
48	0xbd9e555b	-0.07731124
49	0xbdae95ef	-0.08524691
50	0xbe3045a8	-0.17214072
51	0xbc681b83	-0.014166716
52	0xbbc85032	-0.0061130757
53	0x3c40ba04	0.0117631
54	0xbe2b8ab0	-0.16752124
55	0xbdc21914	-0.094774395
56	0x3cf45255	0.029824415
57	0xbe044348	-0.12916291
58	0xbce687ee	-0.028140988
59	0xbcf2d369	-0.029641824
60	0xbe3afdc9	-0.18260874
61	0xbdf62a3e	-0.12019776
62	0xbd065345	-0.032794256
63	0x3c789fb6	0.015174797
64	0x3c0c73d0	0.008572534
65	0xbd987578	-0.074442804
66	0xbe35a7ff	-0.17739867
67	0xbe064eaf	-0.13115953
68	0xbcde45e0	-0.027132928
69	0x3db04d9b	0.08608552
70	0x3dd551b9	0.10415978
71	0xbde1ca2d	-0.1102489
72	0x3d09cd62	0.033643134
73	0xbd914b92	-0.07094492
74	0xbd4cbeba	-0.04998658
75	0x3e22f277	0.15912805
76	0x3e19032e	0.14942619
77	0x3dc1e6b1	0.09467829
78	0x3e83ce59	0.25743368
79	0x3dbe1923	0.09282138
80	0xbdf680fd	-0.12036321
81	0xbe060077	-0.13086115
82	0x3e7555d2	0.23958519
83	0x3e77b277	0.24189173
84	0x3dac8d46	0.08425383
85	0xbe2a51bc	-0.16632742
86	0x3dfe7b23	0.1242583
87	0x3e22215b	0.15833037
88	0x3db0d9e7	0.086353116
89	0x3e63119b	0.22174685
90	0x3d6f40c4	0.058411375
91	0xbd9caf3b	-0.0765061
92	0x3e0a2014	0.134888
93	0x3e858f98	0.26086116
94	0xbdfc4dbc	-0.12319514
95	0x3c124741	0.008928121
96	0xbe0c9549	-0.13728823
97	0x3dd18659	0.10230703
98	0xbde34abd	-0.110982396
99	0x3e446001	0.19177248
100	0x3e354f53	0.17706041
101	0xbc1ef44f	-0.009701802
102	0xbe086f77	-0.1332377
103	0xbe416a7a	-0.18888274
104	0xbd887b4a	-0.066641405
105	0x3e138dd1	0.14409567
106	0x3cc5989c	0.024120621
107	0x3defa668	0.11701661
108	0xbd97c9de	-0.0741155
109	0xbdcbb61f	-0.09946846
110	0x3c8af285	0.016961345
111	0xbe01b03b	-0.12664883
112	0x3e2b7575	0.16744025
113	0xbc5cb2f5	-0.013470401
114	0xbdea5d8d	-0.11443625
115	0xbe2eaa28	-0.17057097
116	0x3e41b8bb	0.18918125
117	0xbe2fd68f	-0.17171691
118	0x3da4dd5f	0.08050036
119	0xbd937f25	-0.07201985
120	0x3dff03c9	0.12451894
121	0xbdf04ca7	-0.1173337
122	0x3e33ef89	0.17571844
123	0xbdb51135	-0.088411726
124	0x3cc75367	0.024331762
125	0x3bddad3a	0.006765035
126	0xbd391583	-0.04518653
127	0x3dd3cadf	0.10341429
128	0xbc309e06	-0.010779863
129	0x3e7328a3	0.2374597
130	0x3e5f08c0	0.21780682
131	0xbdce4c47	-0.100731425
132	0x3d00e5d8	0.031469196
133	0x3e1f9263	0.15583186
134	0x3e78ba6a	0.24289861
135	0x3e5f98b5	0.21835597
136	0x3e8d62cb	0.27614436
137	0x3e92c3dd	0.28665057
138	0x3c2ef68e	0.0106789
139	0x3e286fbf	0.16448878
140	0x3e288080	0.16455269
141	0x3e18ec6a	0.14933935
142	0x3e2501f9	0.16114034
143	0x3e0ebaed	0.13938494
144	0xbc1b6c51	-0.009486274
145	0xbe10e8db	-0.14151327
146	0xbd745f60	-0.05966127
147	0x3e08099a	0.13284913
148	0x3e7f3066	0.24920806
149	0x3d4450a5	0.04792847
150	0xbdebde2b	-0.115169846
151	0x3e42080c	0.18948382
152	0x3e2b5ddb	0.16735022
153	0xbbd9f010	-0.006650932
154	0x3d816f6c	0.0632008
155	0x3d90e56b	0.07075008
156	0x3e2dd85f	0.1697707
157	0xbc8307e5	-0.015994975
158	0xbd8b2c8d	-0.06795607
159	0x3d00a84a	0.031410493
160	0xbdc619d0	-0.09672892
161	0x3db410aa	0.08792241
162	0xbe0c4b4d	-0.137006
163	0xbcbe6725	-0.023242543
164	0xbe0ed088	-0.13946736
165	0x3e4dbf73	0.20092563
166	0x3d8e2172	0.06939973
167	0x3d2c08ff	0.042000767
168	0xbe26dfd0	-0.16296315
169	0xbcbe9460	-0.02326411
170	0xbe2e347e	-0.17012212
171	0xbda34a53	-0.079731606
172	0xbc318da7	-0.010836995
173	0xbe2aee34	-0.1669243
174	0xbe2ccb38	-0.16874397
175	0xbdc171db	-0.09445544
176	0xbc6f5b39	-0.0146091515
177	0xbcd2177a	-0.02564596
178	0x3e696961	0.22794105
179	0x3e327171	0.17426087
180	0xbd66d88a	-0.05635885
181	0x3e5227df	0.20523022
182	0x3e0f20eb	0.13977401
183	0x3c0ca185	0.008583431
184	0xbc4e65a5	-0.012597476
185	0x3d8e23f6	0.06940453
186	0x3e732c06	0.23747262
187	0x3e85812f	0.26075122
188	0xbd6b2bd2	-0.057414837
189	0xbdad1e32	-0.08453025
190	0x3e0a05f7	0.13478838
191	0x3e83bd93	0.2573057
192	0x3e037fa4	0.1284166
193	0xbdfb2a4e	-0.12263928
194	0x3d28dfe5	0.041229147
195	0x3e12a08b	0.14319055
196	0xbdacc549	-0.08436067
197	0x3e46002c	0.19336003
198	0x3dd315ff	0.1030693
199	0x3deb59de	0.1149175
200	0xbe174f83	-0.14776425
201	0xbdb6b07c	-0.089203805
202	0x3e327189	0.17426123
203	0xbe3235a2	-0.17403272
204	0xbe0c9083	-0.13727002
205	0x3df08a10	0.11745083
206	0xbc7f5a1a	-0.015585447
207	0xbd8301a2	-0.06396796
208	0xbe26940b	-0.16267411
209	0xbde11e61	-0.109921224
210	0xbd9bfc47	-0.076164775
211	0x3911f0e5	0.00013918018
212	0xbdeb27ad	-0.11482177
213	0xbdc45447	-0.09586387
214	0xbe34d974	-0.17661077
215	0x3d392f5e	0.04521119
216	0xbe1ea69e	-0.15493247
217	0x3e22d72b	0.15902393
218	0xbe1b6fc6	-0.15179357
219	0xbd868ac9	-0.0656944
220	0x3e046c3c	0.12931913
221	0xbd343841	-0.04399896
222	0xbdfb1970	-0.12260711
223	0xbe473806	-0.19454965
224	0xbda11a65	-0.078663625
225	0xbe41e028	-0.18933165
226	0xbdd6d396	-0.104895756
227	0xbe03cf0a	-0.12871948
228	0x3d4b846e	0.04968684
229	0xbe411bbf	-0.1885824
230	0x3e4085c7	0.18801032
231	0x3e463b81	0.19358636
232	0xbdae37ba	-0.08506723
233	0xbd8d9239	-0.069126554
234	0x3da21028	0.07913238
235	0xbc9dba6c	-0.019253932
236	0xbd70fd5b	-0.05883537
237	0x3e0469ec	0.12931031
238	0xbdbffff8	-0.09374994
239	0x3990ec64	0.00027641945
240	0xbde2eed9	-0.11080713
241	0x3e0dfdbd	0.13866325
242	0x3e416202	0.18885043
243	0xbda58441	-0.08081866
244	0x3c1284fa	0.008942837
245	0x3d9fa8ee	0.07795893
246	0x3e4803da	0.19532719
247	0xbe1050bd	-0.14093299
248	0xbe0dadfd	-0.13835903
249	0xbdd9eddd	-0.10641072
250	0xbdeb75c4	-0.114970714
251	0xbcef2d4e	-0.029196408
252	0x3c8e6da2	0.017386261
253	0x3d3d4599	0.04620895
254	0x3d8c90e2	0.06863572
255	0x3d36ba8b	0.044611495

conv.0.bias f4 [32]
0	0x3d59ec2c	0.053203747
1	0x3e2b3800	0.16720581
2	0x3e5fb770	0.2184732
3	0x37a010d7	1.9081328e-05
4	0x3e578c38	0.21049583
5	0x3e0cb6f8	0.13741672
6	0xbbc18c73	-0.0059066354
7	0xbd145290	-0.03621155
8	0x3e2f7603	0.17134862
9	0xbd8253b3	-0.063636206
10	0x3b59e7f1	0.003324982
11	0xbe138ab2	-0.14408377
12	0x3c60c43e	0.013718663
13	0x3df04605	0.11732105
14	0xbdbaf53b	-0.09128805
15	0xbdcf3772	-0.10117997
16	0x38665169	5.4912092e-05
17	0x3dd8c73a	0.105848745
18	0xbe06690a	-0.13126007
19	0xbd990dac	-0.07473311
20	0x3dbf4df4	0.0934104
21	0x3e2f7f0a	0.17138305
22	0xbe0d9a4b	-0.1382839
23	0x3e49efc4	0.1972037
24	0x3c32aa93	0.010904926
25	0x3d11b73b	0.035575133
26	0x3e0ffee9	0.14062084
27	0xbd1e3083	-0.038620483
28	0x3db9eeea	0.09078772
29	0x3d972b6d	0.0738133
30	0x3e09dd8d	0.13463421
31	0xbe1e78cc	-0.15475768

conv.3.weight f4 [64, 32, 5, 5]
0	0xbca642c3	-0.020295506
1	0x3cabde42	0.020980004
2	0x3d176c14	0.036968306
3	0xbc65566e	-0.013997657
4	0x3d249923	0.040185105
5	0xbceee11d	-0.029160077
6	0xbc4561f1	-0.012047277
7	0xbc9812ac	-0.018563591
8	0xbcb35050	-0.021888882
9	0x3d2452d1	0.040118042
10	0xbc3a71c0	-0.011379659
11	0xbc14a80d	-0.00907327
12	0x3cc5af96	0.024131577
13	0x3ae0be0c	0.0017146482
14	0x3cf2f2d0	0.029656798
15	0x3d090342	0.033450373
16	0x3cb91bfa	0.022596348
17	0xbcbb90c6	-0.022896182
18	0xbc1f6f3d	-0.009731111
19	0xbb97036c	-0.004608562
20	0x3ca61e41	0.020278098
21	0x3c33710d	0.010952246
22	0x3ce9dea8	0.028548554
23	0x3b2c472c	0.002628754
24	0x3c480732	0.012208747
25	0xbca98ddf	-0.020697532
26	0xbc520e0c	-0.012820732
27	0xbc657743	-0.014005485
28	0xbcbf01ba	-0.023316253
29	0x3cd46c34	0.025930502
30	0x3c90b6ba	0.017665256
31	0x3cb4b70d	0.022059942
32	0x3c5815f6	0.01318883
33	0xbc264890	-0.010149136
34	0xbc9a1fc7	-0.01881398
35	0xbc317912	-0.010832088
36	0x3d0720da	0.032990314
37	0xbcdc6ee1	-0.02690834
38	0xbbbb30af	-0.0057125906
39	0xbaf02fe9	-0.0018324825
40	0xbcb98e7e	-0.022650953
41	0xbc2f9dbc	-0.010718759
42	0xbcd597a7	-0.02607329
43	0xbce72588	-0.028216138
44	0x3a331c36	0.0006832512
45	0x3911a32d	0.00013889065
46	0xbccbb9f8	-0.02486895
47	0x3c955b31	0.01823196
48	0xbc393ba0	-0.01130572
49	0xbba94714	-0.005165944
50	0x3cf2e472	0.029649947
51	0x3c98d364	0.018655486
52	0xbcb1e1e5	-0.02171416
53	0xbd07d579	-0.033162568
54	0x3c77586b	0.015096764
55	0xb9a9e0f7	-0.00032401804
56	0xbcf0fd2b	-0.029417595
57	0x3be3c078	0.0069504343
58	0x3cd5a15b	0.026077917
59	0xbcb8f190	-0.022576123
60	0x3ae624f7	0.0017558624
61	0x3b94ce1d	0.004541172
62	0xbb9c901d	-0.004777922
63	0xbb705219	-0.0036670028
64	0x3adb00e4	0.001670864
65	0x3c146be3	0.009058925
66	0x3b5f5d4a	0.0034082704
67	0xbd0a4d2f	-0.033765014
68	0xbc88aae0	-0.016683042
69	0xbd041fb2	-0.03225679
70	0xbbde7b97	-0.0067896354
71	0x3cc41fb6	0.023940902
72	0xbb60e66a	-0.0034317025
73	0xbc1ac2e4	-0.00944588
74	0x3c31db3b	0.010855491
75	0xbc427c77	-0.011870495
76	0x3c92d47c	0.017923586
77	0x3c72b8c9	0.014814564
78	0x3cabab31	0.020955654
79	0x3d07e49a	0.033176996
80	0xbb69dbda	-0.003568402
81	0x3c7b6bec	0.015345555
82	0x3cd8ce8d	0.026465679
83	0xbb8d2746	-0.0043076603
84	0xbcb46790	-0.022022039
85	0x3c34638d	0.011010063
86	0x3d032af8	0.0320234
87	0xbca0ff68	-0.019653037
88	0xbcaf3660	-0.021388233
89	0xbcc9cc0e	-0.024633434
90	0xbd079a05	-0.03310587
91	0xba220ef1	-0.0006182036
92	0xbc7d2f04	-0.015453104
93	0x3d102902	0.035195358
94	0x3d025a32	0.0318243
95	0xbc7d24fa	-0.01545071
96	0xbc9424e5	-0.018083999
97	0xbcb82d4d	-0.022482539
98	0x3c805098	0.01566343
99	0xbc90a7de	-0.01765817
100	0x3cc04b8d	0.023473525
101	0xbc9a189b	-0.01881056
102	0xbc3e0259	-0.011597239
103	0xbbd4a98a	-0.006489937
104	0xbc80d842	-0.01572812
105	0x3aee9217	0.0018201497
106	0xbc48f92d	-0.012266439
107	0xbc93c63b	-0.01803886
108	0xbaa0a7d8	-0.0012257053
109	0x3bd5b3d3	0.006521681
110	0x3bde8915	0.006791244
111	0xbb6e4d2f	-0.0036361923
112	0xbbd00bed	-0.006349078
113	0xbd053b28	-0.03252712
114	0xbd01b8b4	-0.031670287
115	0x3bd19ab5	0.0063966163
116	0x3ce9dbe9	0.028547244
117	0x3ceff566	0.02929182
118	0x3d0cc373	0.034366082
119	0x3ca6061f	0.02026659
120	0x3ce1e3c3	0.027574426
121	0x3cce4205	0.025177965
122	0x3cb6c5a2	0.022311036
123	0x3b15ed39	0.0022876991
124	0x3ccac113	0.024750268
125	0xbca350ad	-0.01993593
126	0x3cdf188f	0.02723339
127	0x3d01f8e9	0.03173152
128	0x3d0c28ce	0.034218602
129	0xbccede1c	-0.025252394
130	0x3c22bf90	0.009933367
131	0xbca3effa	-0.02001189
132	0x3b8f4031	0.004371666
133	0xbc04c4db	-0.008103575
134	0xbc85be38	-0.016326055
135	0x3ccbfe67	0.024901582
136	0xbc90c86e	-0.017673697
137	0x3d348c8f	0.04407936
138	0x3caa727c	0.020806544
139	0x3c810d40	0.015753388
140	0x3c63d8c8	0.013906665
141	0xbd08b4e7	-0.033375647
142	0x3c8a7b3d	0.016904468
143	0xbd164220	-0.036684155
144	0xbc773fc5	-0.015090887
145	0x3c6707ad	0.014100951
146	0x3ae770ed	0.0017657556
147	0xbd1a6608	-0.03769496
148	0xb9875efd	-0.00025819978
149	0xbcba17de	-0.022716459
150	0xbc203f2e	-0.009780688
151	0x3caa42d6	0.020783823
152	0xbcbee3fc	-0.02330207
153	0x3bc42c06	0.0059866933
154	0x3c62ea1a	0.0138497595
155	0xbc8c3e13	-0.017119443
156	0x3b1fb794	0.0024370896
157	0x3bc3a929	0.005971093
158	0x3d11eb86	0.035625003
159	0x3cdd1865	0.026989171
160	0x3ce02453	0.02736107
161	0x3d0fccb3	0.035107326
162	0xbc3f35c6	-0.011670535
163	0xbc6ac888	-0.014330037
164	0x3c2013d9	0.009770357
165	0x3cacfa18	0.021115348
166	0x3d01785d	0.031608928
167	0x3c9278bc	0.017879836
168	0x3cb66969	0.02226706
169	0xbcf2e815	-0.029651681
170	0xbd016437	-0.031589713
171	0xbcb3ef30	-0.02196464
172	0x3bfd6eac	0.0077341404
173	0xbce4620d	-0.027878786
174	0x3cde08c6	0.027103793
175	0xbce3653b	-0.027758231
176	0xbc8ea6aa	-0.017413456
177	0x3c4c9cbe	0.012488542
178	0xbbb459b0	-0.0055038556
179	0xba0d1f67	-0.00053834025
180	0xbc762f5d	-0.015025941
181	0x3c70a0cf	0.014686777
182	0xbc336d01	-0.0109512815
183	0x3ceb4b1d	0.02872234
184	0xbc9cd304	-0.019143589
185	0x3c03904e	0.00803001
186	0x3d247df3	0.040159177
187	0x3d29dccd	0.041470338
188	0x3d1e37b0	0.038627326
189	0xbc2c8bc6	-0.010531371
190	0x3cc2f64e	0.023799088
191	0x3d120811	0.035652224
192	0x3c2be89b	0.010492469
193	0xbcbf0bee	-0.023321118
194	0xbb3a8cc8	-0.002846526
195	0xbc9698ca	-0.018383402
196	0x3b4e6cbb	0.0031497914
197	0x3bda0e8b	0.0066545657
198	0x3c1d5c4b	0.009604524
199	0x3c27b9df	0.010237186
200	0x3d069b0e	0.032862715
201	0x3bc5da84	0.006038012
202	0xbbc0fb01	-0.005889297
203	0xbcfd332e	-0.030908193
204	0xbb96232f	-0.004581831
205	0x3c71882a	0.014741937
206	0x3b3b8e0d	0.0028618604
207	0xbb8d3279	-0.0043089953
208	0x3cee26ca	0.02907123
209	0xbd129717	-0.03578862
210	0x3b86d121	0.0041142856
211	0xbca16ebe	-0.019706126
212	0x3cddb531	0.027063938
213	0x3b945e33	0.004527831
214	0x3c3484f0	0.011018023
215	0x3c196286	0.009361869
216	0xbc72c17e	-0.01481664
217	0xbcb4fce1	-0.022093238
218	0xbd0cfd6e	-0.034421377
219	0x3cc64449	0.024202483
220	0xbc46f810	-0.012144104
221	0x3c6f588f	0.014608516
222	0xbccbaf25	-0.024863789
223	0xbc33c96d	-0.010973317
224	0xbccc0e74	-0.024909236
225	0x3b3c08a6	0.0028691678
226	0xbcfc4ce8	-0.03079839
227	0xbca0d5a9	-0.019633131
228	0xbd077b82	-0.03307677
229	0x3c2aa90c	0.0104162805
230	0x3cd5d092	0.02610043
231	0xbb8f7888	-0.004378382
232	0x3ce0c527	0.02743776
233	0x3cce5ada	0.025189806
234	0x3b0499bb	0.0020233232
235	0x3c8fd106	0.017555725
236	0xbb94c804	-0.0045404453
237	0x3d0012f9	0.031268094
238	0xb9e34201	-0.0004334599
239	0x3cc28477	0.023744805
240	0xbca068c3	-0.019581204
241	0x3c9b6295	0.018967906
242	0x3c3e7c0d	0.011626256
243	0xbd0cd4e5	-0.03438272
244	0xbcafe01c	-0.021469168
245	0x3bc4eb9c	0.006009532
246	0xbc5757bc	-0.013143476
247	0xbb096156	-0.0020962558
248	0x3c4dada9	0.012553611
249	0x3c34ba57	0.011030755
250	0x3c5f6176	0.013634076
251	0x3c3c1e2c	0.011481803
252	0xbcbed328	-0.023294047
253	0xbcb94354	-0.022615112
254	0x3ceabe6d	0.028655255
255	0xbcff2cc8	-0.031149283

conv.3.bias f4 [64]
0	0xbcc59977	-0.02412103
1	0xbbd300bf	-0.006439298
2	0xbbaa237c	-0.0051922183
3	0xbc2b6cf9	-0.010462993
4	0x3d18eeaf	0.037337
5	0xbaba2a8c	-0.0014203354
6	0xbc03694d	-0.008020711
7	0x3c25c9c9	0.01011891
8	0xbcd9ba72	-0.026578162
9	0x3ce21896	0.027599614
10	0xbc3bd854	-0.011465151
11	0xbcfda674	-0.03096316
12	0x3b8198f3	0.0039550005
13	0xbc488033	-0.012237596
14	0x3a480a07	0.0007630889
15	0x3d187a17	0.03722581
16	0x3ca1b173	0.019737935
17	0x3c091b5b	0.008368338
18	0xbcedd410	-0.029031783
19	0xbbffa2a4	-0.0078013707
20	0x3cfd4e03	0.030920988
21	0x3c18599f	0.009298711
22	0x3c7e81fa	0.0155339185
23	0x3d1bf21b	0.038072687
24	0x3ca9b135	0.020714382
25	0xba544753	-0.00080977863
26	0x3ce06760	0.027393043
27	0x3cca0b4e	0.024663594
28	0x3bc94d05	0.0061432146
29	0xbcdbae9a	-0.026816655
30	0x3cd58801	0.026065828
31	0xbcd118a6	-0.025524449
32	0xbc965e4c	-0.018355511
33	0x3cb6befd	0.022307867
34	0xbc884ca5	-0.01663811
35	0x3c2ed2fe	0.010670422
36	0xbcf1dcd6	-0.029524248
37	0x3d0e49de	0.034738414
38	0x3c06dc9b	0.008231307
39	0xbb814310	-0.003944762
40	0xbc5a3ad3	-0.013319689
41	0x3c08020b	0.008301268
42	0xbcbfc2e3	-0.023408359
43	0x3d2a4df5	0.041578252
44	0x3d0ced42	0.034405954
45	0x3c99559a	0.018717576
46	0x3d35fe81	0.044432167
47	0x3c991d8c	0.018690847
48	0xbbeaeb0f	-0.0071691344
49	0x3c66737e	0.014065621
50	0x3c12cfb0	0.008960649
51	0x3c023f3e	0.007949648
52	0xbd0c548e	-0.034260325
53	0xbc3402a7	-0.0109869605
54	0xbd2a67ad	-0.04160278
55	0x3c8ac81d	0.016941125
56	0xb88ca616	-6.706656e-05
57	0xbcc12938	-0.023579225
58	0xbbde0cb2	-0.0067764157
59	0xbcc5800a	-0.024108905
60	0x3bea7b2a	0.0071557956
61	0xbc83357c	-0.016016714
62	0xbc9c4cb0	-0.019079536
63	0xbaa4fcf7	-0.0012587596

fc.weight f4 [10, 3136]
0	0xbc7e56ca	-0.015523622
1	0xbc336412	-0.010949152
2	0x3c569d52	0.0130990315
3	0x3c73b785	0.014875297
4	0xbc2b99e8	-0.010473706
5	0xbab5af7a	-0.00138615
6	0xbbae6e90	-0.0053232387
7	0x3af850e1	0.0018945002
8	0x3aa4173d	0.0012519133
9	0x3c85518d	0.016274238
10	0xbc481994	-0.01221313
11	0x3bc556e4	0.006022321
12	0xbb8e9fb6	-0.004352535
13	0x3ca064fb	0.019579401
14	0x3b69586c	0.0035605682
15	0xbc19d2e1	-0.009388656
16	0x3c1563f8	0.009118073
17	0x3ca2c881	0.019870998
18	0xbb8862ff	-0.004162192
19	0xbc0123a9	-0.007882037
20	0xbc3176ce	-0.010831548
21	0x3b7bdcca	0.003843116
22	0x3c5bd5a8	0.013417639
23	0x3c8f185a	0.017467666
24	0xbc029f84	-0.007972602
25	0xba59bf12	-0.0008306365
26	0xbbeb53fa	-0.0071816416
27	0x3c675ff5	0.014121999
28	0xbc3cfa59	-0.011534297
29	0x3bf3044f	0.007416285
30	0xbc6325b2	-0.013863968
31	0xbd12b4bb	-0.03581689
32	0xbc85ee6e	-0.016349044
33	0x3c8701c8	0.016480342
34	0x3bafd4dc	0.005365951
35	0xbbf36ad0	-0.0074285045
36	0x3bfe27bb	0.007756201
37	0x3c39db60	0.011343807
38	0xbcb855ab	-0.022501787
39	0x3c9fd7d7	0.0195121
40	0x3c1dc6be	0.009629903
41	0xbbfc39ed	-0.007697335
42	0xbbd51387	-0.006502572
43	0xbb28831b	-0.002571291
44	0x3b8843e2	0.004158483
45	0xbb79db8f	-0.0038125252
46	0x3beb7690	0.0071857646
47	0xbc4bcaec	-0.012438517
48	0x3baaea22	0.005215899
49	0x3a66fc6d	0.0008811418
50	0x3abdfd72	0.0014495088
51	0xbbd4de97	-0.0064962613
52	0xbbaca291	-0.005268403
53	0xbb61ddec	-0.003446455
54	0x3ba92682	0.005162061
55	0xbc460b77	-0.012087694
56	0x3c112634	0.008859206
57	0xba50abd1	-0.0007960173
58	0x3c786473	0.015160668
59	0xbc0ba0b5	-0.008522202
60	0x3a0731df	0.00051572727
61	0x3c391e92	0.011298792
62	0x3c230e26	0.009952104
63	0xbc04ee1e	-0.008113412
64	0xba204aa5	-0.00061146385
65	0x3c4fa120	0.012672693
66	0x3c85c4c9	0.016329186
67	0x3ce42a8d	0.027852321
68	0x3a97601a	0.0011549026
69	0x3c85c46d	0.016329015
70	0x3cbefb08	0.02331306
71	0xbbe2e4af	-0.006924234
72	0xbb74888f	-0.003731284
73	0xbc461966	-0.012091016
74	0xbc16b33e	-0.009198008
75	0xbc47be12	-0.012191312
76	0xbc775977	-0.015097014
77	0x3cd5fb87	0.026120914
78	0x3b8ce356	0.0042995615
79	0xbc851ed7	-0.016250057
80	0x3bf1cb96	0.0073790057
81	0x3c5c8b7d	0.013460991
82	0x3b692a07	0.0035578029
83	0x3b304f8b	0.002690288
84	0xbc73afd4	-0.014873464
85	0x3b3af2a3	0.002852597
86	0xbbe94b60	-0.007119581
87	0x3ce3735d	0.02776497
88	0x3b6c080d	0.003601554
89	0xb7bc981c	-2.2482178e-05
90	0xbc7af902	-0.015318157
91	0xbc126d00	-0.00893712
92	0x3bf9a5bf	0.0076186354
93	0x3c6c4852	0.014421539
94	0x3c72aab7	0.014811209
95	0x3c54e080	0.012992978
96	0x3bff3aad	0.007788977
97	0x3c53977d	0.012914536
98	0x3b8f426e	0.0043719327
99	0xbc93193b	-0.017956367
100	0xbbb52e1d	-0.005529179
101	0xbc37aab3	-0.011210131
102	0x3c9263af	0.017869798
103	0x3bc903df	0.0061344947
104	0x3ba5fc79	0.0050654975
105	0x3c30782f	0.0107708415
106	0x3c05e9e1	0.008173437
107	0x3c741bd2	0.014899211
108	0xbc17da44	-0.009268347
109	0xba8fb7e1	-0.0010964834
110	0x3b057729	0.0020365214
111	0x3c460509	0.012086161
112	0x3be6b9e8	0.0070412047
113	0xbb96493c	-0.004586367
114	0xbcd65d6c	-0.026167594
115	0xbc33d6ee	-0.010976536
116	0xbc944a51	-0.018101843
117	0xbc4d0e98	-0.012515686
118	0xbbe57aad	-0.0070031495
119	0xbc9316c6	-0.017955195
120	0x3c970369	0.018434243
121	0x3c393c97	0.01130595
122	0xbc61257b	-0.013741846
123	0xbc7cc89d	-0.015428689
124	0x3bbb0b6f	0.00570815
125	0x3c521142	0.012821497
126	0xbc85abee	-0.016317334
127	0x3c8b83d9	0.017030643
128	0x3ce167e6	0.027515363
129	0x3aa6f801	0.0012738706
130	0x3c31f1cb	0.010860871
131	0xbc66c29a	-0.014084483
132	0xba035e48	-0.00050113024
133	0x3b0f9f16	0.002191489
134	0x35e3923a	1.6955375e-06
135	0x3b62bea6	0.0034598499
136	0xbc47e9fc	-0.012201782
137	0x3be788b3	0.0070658564
138	0xbc8d6579	-0.0172603
139	0xbc8c32b5	-0.017114023
140	0xbc2e1cf6	-0.010627022
141	0x3c536d93	0.0129045425
142	0x3b9018f9	0.004397508
143	0xbb836ef3	-0.004011029
144	0xbc6458a7	-0.013937152
145	0xbafab1d8	-0.0019126488
146	0x3c1b0af9	0.009463065
147	0xbc83f78f	-0.016109256
148	0x3c2958b4	0.01033609
149	0x3c497a96	0.012297293
150	0x3b90e19c	0.004421426
151	0x3c758317	0.014984868
152	0xbc3de922	-0.011591228
153	0x3c7e3f58	0.015518032
154	0xbc6bca33	-0.01439147
155	0xbca0c0c7	-0.019623173
156	0xbcaee47d	-0.021349186
157	0x3ce2a63e	0.027667161
158	0x3ccc007a	0.024902571
159	0x3c22e0c2	0.009941282
160	0xbca33b10	-0.019925624
161	0x3c147a37	0.009062341
162	0xbc1d8973	-0.00961529
163	0xbc1ba4d0	-0.009499744
164	0x3d095267	0.03352585
165	0x3d24ac7a	0.04020355
166	0x3c76f78a	0.015073666
167	0xbcab5036	-0.020912271
168	0xbb4f4a20	-0.0031629875
169	0xbc773828	-0.015089072
170	0xbba25649	-0.0049541336
171	0xbcc863ff	-0.024461744
172	0x3c334b3e	0.010943232
173	0x3c1779c5	0.009245341
174	0x3cc97f9e	0.024596985
175	0x3b9ad708	0.0047253408
176	0x3d129228	0.035783917
177	0xbc13cb02	-0.009020569
178	0xbd9ac4f5	-0.07557098
179	0xbccca7ad	-0.024982298
180	0x3caba03d	0.020950431
181	0x3c0038cf	0.007826044
182	0x3bf73c4b	0.0075450293
183	0x3d11d298	0.03560123
184	0x3b312e5e	0.0027035694
185	0x3c11c40b	0.008896838
186	0xbc530954	-0.012880642
187	0x3baa777e	0.005202233
188	0x3c840572	0.016115878
189	0x3b08fbd1	0.0020902047
190	0x3ca5b247	0.02022661
191	0x3a8f8b8b	0.0010951621
192	0x3bead43c	0.0071664136
193	0xbc448dba	-0.011996681
194	0x3c0be164	0.008537624
195	0xbc8d63ca	-0.017259497
196	0xbb9b6640	-0.0047424138
197	0xbc316bd2	-0.010828929
198	0x3c3db3b1	0.011578486
199	0xbb091fe1	-0.0020923542
200	0x3bde1e8d	0.0067785443
201	0xbc0216a9	-0.007939973
202	0x3bd201f7	0.0064089256
203	0xbc95e511	-0.018297704
204	0x3c35b0c9	0.011089512
205	0x3c4c5786	0.012472039
206	0xbc9dba76	-0.01925395
207	0x3bb5a929	0.005543847
208	0x3c4429da	0.011972869
209	0x3b992275	0.004673297
210	0xbc7c0826	-0.015382802
211	0xbc3a366d	-0.011365515
212	0xbbefebcd	-0.007321811
213	0xbc834cf4	-0.016027905
214	0x3b761f6a	0.0037555345
215	0xbbbec5d2	-0.005821922
216	0xbca880e9	-0.020569282
217	0xbc0daa43	-0.008646551
218	0x3c6a7553	0.014310199
219	0xbcc29b24	-0.023755617
220	0x3c936437	0.017992122
221	0x3ac86e14	0.0015291595
222	0xbc9c7993	-0.01910094
223	0x3b2ff7ca	0.0026850575
224	0xbc6ab7f5	-0.014326085
225	0x3c7696f7	0.015050641
226	0xbc9166f9	-0.017749297
227	0x3c264912	0.010149257
228	0x3c07f5ca	0.008298347
229	0x3c0c09f0	0.008547291
230	0x3cafae34	0.021445371
231	0xbc75927c	-0.014988538
232	0x3a4373cd	0.00074559153
233	0xbb5b0247	-0.0033418105
234	0x3c13867a	0.00900423
235	0x3969fad2	0.0002231405
236	0x3c8a994d	0.016918803
237	0x3c8bdaa7	0.017072035
238	0x3c736801	0.014856339
239	0xb988650b	-0.00026015224
240	0xbc79ede1	-0.015254469
241	0xbbcc774e	-0.006239808
242	0xbbedb0e9	-0.0072537553
243	0xbc43f714	-0.0119607635
244	0x3c220952	0.009889917
245	0xbc605ffb	-0.0136947585
246	0xbb97c7d0	-0.004631974
247	0x3bc0cd38	0.005883839
248	0x3aa023bb	0.001221768
249	0x3c4a79f4	0.012358177
250	0xbbd49216	-0.0064871414
251	0xbc6a5b1d	-0.01430395
252	0xbc83c45c	-0.016084842
253	0x3ba7fb52	0.0051263953
254	0xbc869282	-0.016427282
255	0xbc5cad8b	-0.01346911

fc.bias f4 [10]
0	0x39332045	0.00017082792
1	0x3ca57a2b	0.020199856
2	0xbc2da0d5	-0.010597427
3	0x3bee3e82	0.007270635
4	0x3a2a9591	0.00065072725
5	0x3c29e72c	0.010370057
6	0xbc9ef456	-0.019403618
7	0x3a438f47	0.00074600097
8	0xbc86e9ab	-0.016468843
9	0xbc1ca5ce	-0.009561015
